…
To enable them in other operations, rebuild TensorFlow with the appropriate compiler flags.
Layer: Gaussian
   Num Tensors: 4
   Num Nodes:   20
Layer: product
   Num Tensors: 2
   Num Nodes:   50
Layer: sum
   Num Tensors: 1
   Num Nodes:   10

num params: 6791















































Training data shape :  (60000, 28, 28) (60000,)
Testing data shape :  (10000, 28, 28) (10000,)
Model: "sequential_3"
_________________________________________________________________
 Layer (type)                Output Shape              Param #   
=================================================================
 conv2d_12 (Conv2D)          (None, 28, 28, 4)         40        
                                                                 
 leaky_re_lu_15 (LeakyReLU)  (None, 28, 28, 4)         0         
                                                                 
 max_pooling2d_12 (MaxPoolin  (None, 14, 14, 4)        0         
 g2D)                                                            
                                                                 
 dropout_15 (Dropout)        (None, 14, 14, 4)         0         
                                                                 
 conv2d_13 (Conv2D)          (None, 14, 14, 8)         296       
                                                                 
 leaky_re_lu_16 (LeakyReLU)  (None, 14, 14, 8)         0         
                                                                 
 max_pooling2d_13 (MaxPoolin  (None, 7, 7, 8)          0         
 g2D)                                                            
                                                                 
 dropout_16 (Dropout)        (None, 7, 7, 8)           0         
                                                                 
 conv2d_14 (Conv2D)          (None, 7, 7, 16)          1168      
                                                                 
 leaky_re_lu_17 (LeakyReLU)  (None, 7, 7, 16)          0         
                                                                 
 max_pooling2d_14 (MaxPoolin  (None, 4, 4, 16)         0         
 g2D)                                                            
                                                                 
 dropout_17 (Dropout)        (None, 4, 4, 16)          0         
                                                                 
 conv2d_15 (Conv2D)          (None, 4, 4, 32)          4640      
                                                                 
 leaky_re_lu_18 (LeakyReLU)  (None, 4, 4, 32)          0         
                                                                 
 max_pooling2d_15 (MaxPoolin  (None, 2, 2, 32)         0         
 g2D)                                                            
                                                                 
 dropout_18 (Dropout)        (None, 2, 2, 32)          0         
                                                                 
 flatten_3 (Flatten)         (None, 128)               0         
                                                                 
 dense_6 (Dense)             (None, 64)                8256      
                                                                 
 leaky_re_lu_19 (LeakyReLU)  (None, 64)                0         
                                                                 
 dropout_19 (Dropout)        (None, 64)                0         
                                                                 
 dense_7 (Dense)             (None, 10)                650       
                                                                 
=================================================================
Total params: 15,050
Trainable params: 15,050
Non-trainable params: 0
_________________________________________________________________
Epoch 1/100
750/750 [==============================] - 28s 36ms/step - loss: 1.2996 - accuracy: 0.5423 - val_loss: 0.3615 - val_accuracy: 0.9102
…
